models/model.pt (torch, 410140 bytes, 10 tensors)

features.0.weight f4 [32, 3, 3, 3]
000000 b4 6e 4f 3e 7d 97 37 3e 0d 24 ef bc 73 25 59 3e
       0.20257074 0.17928882 -0.029191995 0.21205692
000010 b3 fd eb ba d6 2c 8d 3d 6c 2b 26 bd e4 4a 16 3e
       -0.0018004685 0.068933174 -0.040568754 0.14677006
000020 1e e8 59 3e b6 df 24 be 2e a8 e8 3d f9 e2 7a bc
       0.21279952 -0.16100964 0.11360203 -0.015312904
000030 bb 49 c8 3d e8 00 26 bc 7e 58 5f 3d a9 d7 57 bd
       0.09779688 -0.010132052 0.054527752 -0.052695904
000040 12 6a db 3d e6 95 bb 3b 14 b0 f7 bd b9 39 42 bc
       0.10713591 0.0057246564 -0.12094131 -0.0118545825
000050 3f cc 11 be 8c 11 a4 bd 48 b6 fd bd b4 d6 ab 3d
       -0.1423807 -0.08011159 -0.12388283 0.08390561
000060 57 6c 45 be 94 4b 11 be a0 28 b0 bd dc ad 0b be
       -0.1927961 -0.14188987 -0.086014986 -0.13640541
000070 b5 bc 0c 3d fd 92 67 be 06 e1 29 3e 5e 7a 46 be
       0.034359653 -0.22614665 0.16589746 -0.19382617
000080 1f aa ff 3d ca 64 66 bc a2 52 ad bd 61 2a 12 3e
       0.1248362 -0.014062116 -0.084630266 0.14273979
000090 e3 04 30 3c 22 97 32 3e 4b af 55 bc 6f 28 88 bd
       0.010743353 0.17440465 -0.013042281 -0.06648337
0000a0 6f d5 ba 3c ae 82 94 bd 7f 90 02 3d c2 6d 17 3e
       0.022806851 -0.07251488 0.031876083 0.14787963
0000b0 de 92 0a 3e ef 72 c4 bd ae 89 07 3e 37 0e cb 3b
       0.13532588 -0.09592234 0.13236114 0.006196763
0000c0 f1 66 d4 3d c6 07 0b be 42 f7 4c be 7f e1 cd bd
       0.10371197 -0.13577184 -0.20016196 -0.100527756
0000d0 4e 74 1b be 73 74 4e 3e f9 37 ed 3d 42 78 8c 3d
       -0.15181085 0.2016161 0.115829416 0.06858875
0000e0 45 1a 15 3c 75 f6 4e 3d 5c 16 36 3e 24 bf 2d be
       0.009100501 0.05052801 0.17781967 -0.16967446
0000f0 bd 0f 73 3d 16 89 ea bd 5a b6 26 3d 40 ad 30 bd
       0.05934118 -0.11451928 0.040701248 -0.043133974
000100 be 66 a5 3c c2 5d ea bd 55 98 32 3e 96 85 f3 bd
       0.020190593 -0.11443664 0.17440923 -0.11890714
000110 e0 73 33 be c8 88 de bd 3e 13 20 3e 32 62 58 3c
       -0.17524672 -0.10865933 0.1563234 0.013207005
000120 98 60 74 3e b7 6a 1c be 76 18 67 be 76 80 e1 bd
       0.23864973 -0.15275083 -0.22567925 -0.1101083
000130 8a aa be bd a7 87 81 3d 14 7a c1 3d 70 a0 37 3e
       -0.093098715 0.06324702 0.09447113 0.17932296
000140 e0 cc cc bd f1 6a 11 be 97 f0 bf 3d 35 0d 87 bd
       -0.10000014 -0.14200951 0.09372061 -0.06594316
000150 89 c5 f4 3d a5 14 94 bd 94 46 e8 3d d3 f6 23 be
       0.11951739 -0.072305 0.11341587 -0.16012125
000160 5c 71 f7 bd f9 85 81 3d df 42 bc 3d c0 95 eb 3b
       -0.120821685 0.063243814 0.09192442 0.0071894825
000170 8f 8d 47 3e c1 eb 47 3e b6 30 d2 bd 87 9f f9 bc
       0.19487594 0.19523527 -0.10263197 -0.030471576
000180 6d 0c 68 3e 66 cd d4 bc 5c f4 a5 3b 9f 4a 29 be
       0.2266099 -0.025976848 0.0050645303 -0.16532372
000190 71 4d ab bd a6 0d c7 3d 5e 38 df 3b a0 c2 04 be
       -0.0836438 0.097194 0.0068121394 -0.12964869
0001a0 d2 36 49 3d 8e 53 e0 bd 02 e6 17 be ac e8 63 bd
       0.049124546 -0.10953437 -0.14833835 -0.055641815
0001b0 0a 7e 05 be fb 21 89 bd 29 09 8e 3e 5a dc a1 3d
       -0.13036361 -0.066959344 0.27741364 0.07903357
0001c0 14 6c ff 3d 60 a7 b2 bd 3b 1f d5 bd e3 0d 8e bc
       0.12471786 -0.087233305 -0.10406347 -0.017340606
0001d0 8f 65 02 3e 6c 1b 45 be e2 72 c0 bd ca a0 e3 bd
       0.12734054 -0.19248742 -0.09396912 -0.111146525
0001e0 1e 19 cf bc 5f ad a5 bd d0 48 41 3b 15 52 31 be
       -0.025280531 -0.080897085 0.0029492863 -0.17316468
0001f0 d5 e9 1f be 87 b4 af bd 3f 86 6d bd 2c 10 0b be
       -0.15616544 -0.08579355 -0.057989355 -0.13580388
000200 36 ca 3e 3e bc 44 00 bd b3 ef 3d 3e 17 f9 c6 3d
       0.18631825 -0.03131555 0.18548469 0.09715479
000210 9c 5e 32 be 2e 99 0d 3e e6 73 97 bb 7a 20 bf bd
       -0.17418903 0.13827965 -0.0046219705 -0.09332366
000220 76 66 3f be 71 50 56 be 1f 95 d8 3d 0f 14 80 bc
       -0.1869143 -0.20929123 0.105753176 -0.015634565
000230 28 50 7a 3d f2 dd 30 be d1 a1 37 3e cf 55 f9 bd
       0.0611116 -0.17272165 0.17932822 -0.1217457
000240 84 0c d1 bc ff d2 28 3d 08 19 d4 3d 44 9b 5a 3e
       -0.025518663 0.041216847 0.10356337 0.21348292
000250 6c a6 5c 3e ba 38 10 be a2 20 66 3d d8 35 06 bd
       0.2154786 -0.1408414 0.056183465 -0.032766193
000260 62 4b bd 3c 14 02 5b be fc 01 c5 3d 82 e1 5a be
       0.023107234 -0.21387511 0.09619519 -0.21375087
000270 16 2d d2 3d a4 0a 3f 3d ad e0 be bb d5 27 2d be
       0.10262506 0.046641007 -0.0058251233 -0.16909726
000280 cb aa 25 3e e6 93 f9 3b 88 c7 e5 3c e2 a2 36 be
       0.16178434 0.007616508 0.028049245 -0.17835572
000290 57 ea 76 3d 6c 05 f2 bc 00 18 e1 bd 83 82 09 3e
       0.060282078 -0.029543601 -0.10990906 0.13428693
0002a0 ca 20 10 3d 6c c7 f7 bd 96 23 ec bd e2 27 6b ba
       0.03518752 -0.120985836 -0.11530225 -0.00089704816
0002b0 0b 4d cf 3d 84 d7 92 bd 03 a1 e0 bd 87 b8 b6 bd
       0.10122117 -0.071700126 -0.109682105 -0.089219145
0002c0 40 2c 38 be fa a7 6f 3d 7c 04 06 3e 06 bb 51 be
       -0.1798563 0.058509804 0.13087648 -0.204815
0002d0 c5 85 bd 3d c2 5b 0b 3e f2 89 62 3d df 00 fd bc
       0.0925403 0.13609222 0.055307336 -0.030884204
0002e0 5c 29 f6 3d 1c e2 df 3d 3d c4 c3 3d 1d 2e 5b bc
       0.120196074 0.10931799 0.09558914 -0.0133776935
0002f0 f6 dd 0e bd 51 74 11 3d 4c b9 5d bd 9a d5 e2 bd
       -0.034879647 0.03551132 -0.05413179 -0.110758975
000300 82 2a 1c 3e 4a d4 3d 3e e5 2a 9e bc 4f 49 17 bc
       0.1525059 0.18538013 -0.019307563 -0.009233787
000310 bb 1f 63 3c 62 c5 2e bc cf 46 1c 3d d2 e6 8e 3c
       0.013862546 -0.010667177 0.038153466 0.017444048
000320 53 49 73 be 71 b8 8b bd 10 7a 26 3e 00 aa 82 3d
       -0.2375844 -0.06822289 0.162575 0.06380081
000330 94 02 18 bb 66 84 fc bd a6 2a 04 be 1c a8 03 be
       -0.0023194896 -0.123299405 -0.12906894 -0.12857097
000340 b5 5d 0d bd 9c 2a 8e 3d 20 cf 33 3e cd 47 1e 3e
       -0.034513194 0.06941721 0.1755948 0.15457077
000350 a3 59 f2 bd c8 37 82 bd 64 31 8f 3c d5 80 75 3e
       -0.11833503 -0.06358296 0.017479606 0.23974927
000360 10 a3 60 3d 92 f7 b7 bc ff 11 ca 3d 22 76 ca bd
       0.05484301 -0.022456918 0.09866714 -0.09885813
000370 2b bd 19 be 72 fb 16 3e 09 e3 ae bd 3a 1e f8 bc
       -0.15013568 0.14744356 -0.08539397 -0.03028785
000380 67 31 3b be 03 10 33 3e a3 49 49 3e 32 cc e9 3d
       -0.18280564 0.17486577 0.19656996 0.114159
000390 4f 7f 14 be 86 99 49 be 18 f7 02 be a2 b6 20 3e
       -0.1450169 -0.19687471 -0.12789571 0.15694669
0003a0 a7 f4 ed 3d 24 68 40 3e 51 f8 08 3e 0d a6 b2 3d
       0.11618929 0.18789726 0.13375975 0.08723078
0003b0 7d be fe 3c 9f 82 30 be 11 21 3d be ea 50 29 be
       0.031096691 -0.17237328 -0.18469645 -0.16534773
0003c0 da d4 98 3d fd 4a af bd c0 24 db bc ac 81 e9 bd
       0.07462473 -0.08559225 -0.026750922 -0.11401686
0003d0 64 3f 4f bb b5 bf 41 bd 19 20 a1 bd 37 12 ff 3d
       -0.0031623477 -0.047301967 -0.0786745 0.12454646
0003e0 82 86 e3 bb 02 f3 5c 3e 87 85 05 bd c6 a9 f2 bd
       -0.006943525 0.21577075 -0.032598045 -0.11848788
0003f0 06 0e b2 bd 37 20 cc bd c7 16 59 bc 5d b7 37 be
       -0.08694081 -0.09967082 -0.013250059 -0.17941041

features.0.bias f4 [32]
000000 24 b8 d8 bd 80 29 07 3d 45 a0 2c bd da 99 ac bd
       -0.10581997 0.03299856 -0.042145032 -0.08427782
000010 ed 40 d3 bc c6 af 0e be 89 08 c9 bd 8e e8 c4 3d
       -0.025787795 -0.1393424 -0.09816081 0.09614669
000020 07 8c 0f bc 55 c3 46 bd 48 97 bd bd 53 b9 e3 bd
       -0.008761412 -0.048526127 -0.0925737 -0.11119332
000030 e7 20 bc 3d 50 dc 9e 3c 8f d9 8c 3d 50 8f 59 bd
       0.09185963 0.019392163 0.068774335 -0.05311519
000040 fc 08 bb bc 72 6d 95 3b 20 90 f1 3c c4 32 70 bc
       -0.022831433 0.004560166 0.02948767 -0.014660541
000050 bd 98 fb 3d b5 c9 9a 3c ac 5b be 3d c7 cd c1 bd
       0.12284992 0.01889501 0.09294829 -0.09463077
000060 eb 82 24 be 3f 86 85 3d c0 42 2a bd bd ad cb bd
       -0.16065566 0.06519746 -0.041567564 -0.09945247
000070 9a c7 8b bd 1d f8 be 3a c0 22 87 3d 7b 5e 0d be
       -0.0682518 0.0014569793 0.06598425 -0.13805573

features.3.weight f4 [64, 32, 3, 3]
000000 38 1a 05 bd 25 fb 68 bd d5 fa b8 bc f5 e5 31 bd
       -0.032495707 -0.056880135 -0.022580544 -0.043432195
000010 42 ba 2a 3d 32 e8 9f 3c 5c 64 1d 3d de 4a 52 bc
       0.041681536 0.019519899 0.03842579 -0.012835233
000020 36 d0 43 3c b9 06 99 3d 0a 16 41 bd 95 3f fe bb
       0.011951497 0.07471985 -0.04714016 -0.0077590444
000030 24 c7 3c 3b bf c1 e0 bc b4 28 86 bd e9 a4 3f 3d
       0.002880522 -0.027436135 -0.06550732 0.04678813
000040 53 09 1a 3d 40 94 fa 3b 1a 30 78 3d f5 12 3e bd
       0.03760655 0.0076470673 0.06059275 -0.046404798
000050 af 96 87 bd 7a 36 91 bc 6d 24 08 bc 3e 57 37 bd
       -0.066205375 -0.017726172 -0.008309466 -0.044760935
000060 d9 e2 a9 bd aa 45 d4 bc ca c2 5d bd 85 a2 4f bd
       -0.08295221 -0.025912125 -0.054140843 -0.0506921
000070 e6 68 2d 3d 0b f8 5d bd ae 24 5f bd 48 86 8e b7
       0.042336367 -0.05419163 -0.05447834 -1.6990249e-05
000080 ea 89 5d bd e5 fe 3e bd b9 9e 8f 3c 14 84 80 bd
       -0.054086603 -0.046629805 0.01753174 -0.06275192
000090 b8 51 73 bd 37 a2 a4 bc 1c 0d 22 bd 13 6d da bc
       -0.059404105 -0.020096881 -0.039563283 -0.026663339
0000a0 18 47 80 bd aa 46 9c bb a2 7e 9a bc 6b 87 63 bd
       -0.0626356 -0.004769166 -0.018859211 -0.055549067
0000b0 b2 eb af bd 4c da 0d 3c 32 88 58 3c a4 6a 2c bd
       -0.08589877 0.008658003 0.013216065 -0.042093888
0000c0 09 81 68 bd 7f ca 88 3d 99 25 1b bd a2 5c 9e bd
       -0.056763683 0.06679248 -0.037877653 -0.07732512
0000d0 1d 69 8b bd 30 94 05 3d b9 c7 d6 3a 99 0a 1b 3d
       -0.06807158 0.032612026 0.0016386426 0.037851904
0000e0 24 31 b7 3d 48 3c 73 3d c7 6b 6f 3d e1 62 e2 bc
       0.0894492 0.05938366 0.058452394 -0.02763504
0000f0 6c 0d ef 38 9d 6b a6 bb 53 de 6a 3d e1 8f 96 3c
       0.00011398908 -0.0050787465 0.05734093 0.018379154
000100 69 4c 2e bd 06 3e d2 bc ff b1 31 bd f2 a1 76 3c
       -0.04255334 -0.02566434 -0.04338264 0.015053259
000110 80 f7 04 bd 3d f0 27 3d 40 dc fe 3b 82 4e 49 bc
       -0.032462597 0.041000593 0.0077777207 -0.012286784
000120 98 76 81 3c 57 e4 c4 3c 54 41 2d 3d c9 8d 0d 3d
       0.01580362 0.024034662 0.04229863 0.034559045
000130 68 67 3f 3d 5f 73 d4 bc bd ff ac 3d 00 cc ca 3c
       0.046729475 -0.02593392 0.08447216 0.024755478
000140 0e 92 c0 bc 89 3a 08 3d 25 33 cd 3d 74 e8 46 3d
       -0.023507144 0.03325895 0.10019521 0.04856153
000150 85 3d 04 3d f1 51 32 bc 4c e7 88 3c 4f f8 5a 3d
       0.032285232 -0.010883794 0.016711853 0.05345946
000160 72 ef db bd 44 06 22 bd 13 ff 7b bd 5f db 24 bd
       -0.1073903 -0.039556757 -0.061522555 -0.04024827
000170 11 59 dc bc 0c f2 81 bd 5b e3 8b bd 92 59 bd bc
       -0.026897939 -0.06344995 -0.06830474 -0.023114
000180 f1 1f 4c bd 48 91 ca bd ae 8b af ba 80 9a b6 3c
       -0.04983515 -0.098909914 -0.0013393068 0.022290468
000190 6b f8 60 3d b0 a1 15 3d a3 66 26 3d 04 85 84 ba
       0.05492441 0.03653115 0.040625226 -0.0010110443
0001a0 eb 50 48 3d 45 e2 81 bc 0a 56 00 3c 64 c3 2c 3d
       0.048905294 -0.015854964 0.007833013 0.042178527
0001b0 4f 02 07 bd 6b eb 0b bd ee fe 4c bd c3 3e 2d bd
       -0.032961186 -0.03416006 -0.050047807 -0.042296182
0001c0 44 b4 39 bd 2f 30 24 bd 85 09 06 bc 97 c8 99 bd
       -0.04533793 -0.040085014 -0.008180981 -0.075089626
0001d0 ad b3 7e bd ca 65 70 bd dc 6d b4 bc f8 b6 98 bc
       -0.06218307 -0.058690824 -0.022025041 -0.018641934
0001e0 1a 48 86 bd 16 39 c1 bb 22 c6 fa bc 06 c3 94 bb
       -0.06556721 -0.0058966978 -0.030612055 -0.00453985
0001f0 8b 70 9a bd 66 a7 a0 bd 60 30 8d bc 54 cb 46 3d
       -0.07540997 -0.07844429 -0.017234981 0.048533753
000200 e0 4e be 3c d0 6b 84 3d c8 2c 54 3d 29 03 0f bd
       0.02323097 0.06465876 0.05180052 -0.034915123
000210 0c ed 38 3d ed 2b d4 bc 3e 79 32 3c 2d 3b 3f bb
       0.04514794 -0.025899852 0.010893164 -0.0029179559
000220 c1 bd 29 bc 15 ce 82 bd 8b a5 98 bc d0 8b 6e 3d
       -0.010360182 -0.06386963 -0.018633625 0.058238804
000230 29 cc a5 3c 98 e0 1d bd 72 77 c5 bc 74 8b b1 bc
       0.020238953 -0.038544267 -0.024104808 -0.021672942
000240 c3 26 49 bd 5b 2c 82 3d 1c 55 5d bd e9 63 70 bd
       -0.04910923 0.063561164 -0.054036245 -0.05868903
000250 cc ee 39 bc 84 04 09 bd 11 f7 6b bd 13 4f 78 bd
       -0.0113484375 -0.033451572 -0.057608668 -0.060622286
000260 87 4f af bb 8b 3f 97 bc 4e dd b3 3d d2 23 17 bc
       -0.0053500566 -0.018462917 0.08782445 -0.009224849
000270 0a 86 de 39 e5 30 18 bc 55 2d 1e 3d d5 d3 f3 3c
       0.00042443007 -0.009289001 0.03861745 0.029764095
000280 a6 30 36 3b 56 0f 38 bd c3 de f0 bc b2 1d 8c bd
       0.0027799993 -0.0449365 -0.029403096 -0.068416014
000290 ce dc 82 bd f1 c5 12 3d bc 4e 63 3d 53 51 27 3d
       -0.063897714 0.035833303 0.05549501 0.04084904
0002a0 d0 08 1a bd 5d 13 3c 3d 49 19 06 bd 60 33 de 3c
       -0.03760606 0.045916904 -0.032738958 0.027124107
0002b0 63 eb 5f 3d 49 34 40 bc 6f 34 f6 3c c7 c0 55 3c
       0.05466784 -0.011731216 0.0300543 0.01304645
0002c0 57 ab 5a bd 60 60 b9 bc 16 f0 93 bd 3e a5 32 bd
       -0.05338606 -0.022628963 -0.07223527 -0.04361462
0002d0 72 e3 1f bd 46 55 26 bc 66 7a 88 bd 6d d8 1b bc
       -0.039035268 -0.010152167 -0.06663971 -0.009512049
0002e0 19 d5 ca bc df da 0c bd 9a 9b 21 bd 12 aa 59 bd
       -0.024759816 -0.03438842 -0.039455034 -0.053140707
0002f0 26 54 f3 ba ec 26 71 3d ee 61 ab 3d cf 3f 5a 3c
       -0.0018564507 0.05887501 0.08368288 0.013320877
000300 f6 01 65 bd 0d 9b 71 bd 34 3b 88 3c c6 f1 5e 3c
       -0.055910073 -0.05898576 0.016629793 0.013607448
000310 f5 9e c4 bd 64 e2 f4 3b 7c 2b 43 3d 8d cc 79 3d
       -0.09600631 0.007473277 0.04764889 0.06098609
000320 2a fb 7f bd 95 ee 80 3d fa ca 95 3c b7 a9 bb 3c
       -0.062495388 0.06295506 0.018285263 0.022908075
000330 b4 aa 4f bd c6 be e0 bb 8b ac 97 bd 58 1b 98 3d
       -0.050699905 -0.0068586795 -0.07405957 0.074270904
000340 94 38 11 bd e5 60 2e 3c a8 84 2d bc 7d 21 32 3c
       -0.035454348 0.010643219 -0.01059071 0.010872242
000350 52 6d d0 bc bf 00 79 3c a4 d5 5d bd b6 c1 a0 bd
       -0.025442753 0.015197932 -0.05415882 -0.078494474
000360 f8 20 79 3d 5f de 50 3e 3c 54 1b 3d dc c6 15 3e
       0.060822457 0.20397328 0.03792213 0.1462664
000370 36 2c 80 3d 80 ef c0 3d a6 c4 03 3e 30 84 9b 3d
       0.062584326 0.09420681 0.12867984 0.07593572
000380 1c db 57 bc a7 42 68 bd 66 a9 c5 3b 57 ae 1d bd
       -0.013174798 -0.05670419 0.0060321568 -0.03849634
000390 f0 7d 32 3d 47 ce 2f bd 5d 9a a8 3c 65 bc 56 3d
       0.043577135 -0.04292133 0.020581419 0.05242576
0003a0 69 81 c6 3c f6 41 8e 3c 95 34 5a bd 8e 0e aa 3d
       0.02423163 0.017365437 -0.053272802 0.08303557
0003b0 78 02 55 ba 5e 66 75 bc a6 bc de 3d 73 da 3b bd
       -0.0008125673 -0.0149780195 0.108758256 -0.045862626
0003c0 af f2 0e 3d a8 60 b7 3d 19 e8 2e bd 48 5d 46 bd
       0.03489941 0.089539826 -0.042701814 -0.048428804
0003d0 ef 3d 8c 3d b0 6d 84 bc a5 40 8b 3d f3 ce 0a bd
       0.068477504 -0.016165584 0.06799439 -0.03388877
0003e0 de 97 50 bc ab 50 3c bc fb fc 26 bd dd c1 b3 bd
       -0.01273152 -0.011493842 -0.040768605 -0.08777211
0003f0 15 f9 90 3c ef 4e c8 bc e3 31 eb bd 1f ff 8d 3c
       0.017696897 -0.024451701 -0.114841245 0.017333565

features.3.bias f4 [64]
000000 a5 b7 a9 bd e8 6f 2f bd 3a 68 e9 bc 4b 39 c4 bc
       -0.082869805 -0.04283133 -0.028492082 -0.0239531
000010 80 db 3b bd 04 c5 35 bd 98 df 4e bd f0 4a 76 bd
       -0.04586363 -0.044377342 -0.050506204 -0.06013006
000020 4c 2b 92 3c e6 5c a4 bc b4 77 e6 bc 39 59 b5 3c
       0.017842911 -0.020063829 -0.02813325 0.022137271
000030 b9 27 be 3c b2 54 ae 3c 36 19 fe 3c e0 0e 27 bd
       0.0232123 0.02128062 0.03101788 -0.04078567
000040 63 e0 6f bd ae 09 10 bd 67 ef 12 3d 49 eb b6 3b
       -0.0585636 -0.03516548 0.035872843 0.0055822474
000050 9b 04 50 bc f4 52 9f 3c cc 1a 0f bd a4 f8 7b bd
       -0.0126964105 0.019448735 -0.034937665 -0.06151642
000060 23 9d 50 bc ed 42 9c bd 27 db 05 bd 26 29 30 bd
       -0.012732777 -0.076299526 -0.032679703 -0.043007992
000070 e2 3d 4e 3d 28 a8 2e 3d 51 69 9a bd 6c 98 fc bc
       0.050351985 0.042640835 -0.07539619 -0.0308344
000080 fd f0 50 bd 40 de 8b bc 5c e4 7b bd a1 1a b6 bd
       -0.051011074 -0.01707375 -0.061497077 -0.08891798
000090 b0 28 ee bd e0 6f c9 bd 62 f1 30 3c 9b 23 6a bc
       -0.11628854 -0.098357916 0.010799738 -0.014290716
0000a0 9b 54 2e 3c 2c 87 71 bd c8 02 4a bd 52 13 c9 bc
       0.010640289 -0.0589668 -0.04931906 -0.024545345
0000b0 cb 4b a7 bd 8b c0 c4 bc af d8 91 bd 43 87 b1 bc
       -0.08168753 -0.024017593 -0.07121407 -0.021670943
0000c0 8b 41 97 bd ae 0f 9e 3c 43 13 ca 3c e4 68 35 bd
       -0.07385548 0.019294586 0.024667388 -0.044289485
0000d0 30 d4 a1 bb 66 e8 b9 bd 43 80 47 bd db 3d f5 3c
       -0.004938625 -0.090775296 -0.048706304 0.029936722
0000e0 82 80 e6 bd b2 fa 4b 3b 4b 07 85 3b cb 5e 5f bd
       -0.1125498 0.0031124768 0.0040597073 -0.05453376
0000f0 be ef 0c bd f8 cd 26 3d 7f 6f 5a bd d1 48 0a 3e
       -0.034408323 0.04072377 -0.053328987 0.1350434

features.6.weight f4 [128, 64, 3, 3]
000000 89 df e1 bd da 2a a2 3c 12 d7 ae bd 73 b5 02 be
       -0.11028964 0.019795824 -0.08537115 -0.1276453
000010 01 21 36 bd 7d 85 a1 bd ea 2e 05 be 72 f1 f3 bb
       -0.04446507 -0.07886789 -0.13006178 -0.007444554
000020 5f 99 d9 3a 1b f4 19 bd e6 a9 34 bd 80 79 ac 3b
       0.0016601494 -0.037586313 -0.04410734 0.0052635074
000030 41 df fa bc 66 50 41 bd 4e 15 a8 3c fe 34 86 bc
       -0.030624034 -0.047195815 0.020517971 -0.01638269
000040 06 c4 2d 3b 58 9a 80 ba 61 d9 85 bd 06 4f 97 bd
       0.0026514544 -0.0009811623 -0.06535602 -0.073881194
000050 3b f1 b5 bc 75 2d 9b bd 64 ec 69 bd 78 a4 26 bd
       -0.022209754 -0.075770296 -0.057110205 -0.040684193
000060 31 21 66 bd 20 48 36 bb a0 8d 90 bd 91 51 2a bd
       -0.056183998 -0.0027813986 -0.07058263 -0.041581694
000070 ee fd 14 bd e9 62 90 3c d4 57 2a bd 52 fa a5 3c
       -0.03637498 0.017625289 -0.041587666 0.020260964
000080 6b 66 0e 3d c4 2f 08 3d 5c 2c 0d 3d ad eb ff 3a
       0.034765642 0.033248678 0.034466133 0.0019525193
000090 d6 8c 29 bd 27 d1 8d 3b f5 09 35 3c a2 cb 10 bc
       -0.041394077 0.0043279114 0.011049737 -0.008837612
0000a0 98 27 2d bd 2b 3d d0 3c 46 f1 10 3b 2e 5b b4 3c
       -0.042274088 0.025419792 0.0022116466 0.022016134
0000b0 25 27 2e bc dd 70 87 bd 43 6d fb 3b 12 75 5c bd
       -0.01062945 -0.06613324 0.007672937 -0.053822584
0000c0 0d 1d 5f bd 21 cf 22 3c 12 fb fd bc 44 4d 9f ba
       -0.054471064 0.009937079 -0.031003509 -0.0012153764
0000d0 84 75 a9 bb 4d 24 fb bc b4 ae 69 bc fa fd 4d 3c
       -0.0051714797 -0.030656958 -0.014262844 0.01257276
0000e0 75 61 6a bc 12 31 39 3c 1c ce 9c bc 27 12 eb bc
       -0.014305462 0.011303203 -0.01914125 -0.02869518
0000f0 1d 1f 04 bd 92 d5 41 bd 88 8f 97 bc 91 a8 cb bc
       -0.032256234 -0.047322817 -0.018501058 -0.024860652
000100 5a 7d f0 3b 45 e1 b8 bb d0 b0 08 bd 61 ae 13 bd
       0.007339162 -0.0056420886 -0.033371747 -0.036054973
000110 af 56 45 bc b2 25 17 3c 57 28 5b bb 72 9f 3d ba
       -0.012044593 0.009225296 -0.0033440792 -0.0007233537
000120 1f 5d e8 bc a2 ff ca bc 1e ed 3d bc 50 35 3a 3c
       -0.028364716 -0.024780098 -0.011592178 0.01136525
000130 02 74 35 bd 0f cb 42 3c 0b 96 8e 3c 67 46 41 bd
       -0.044300087 0.011889233 0.01740553 -0.04718628
000140 b0 7a 40 3c 6b f1 11 3a 99 43 34 3c c2 7b eb bc
       0.011748001 0.0005567285 0.011002445 -0.028745536
000150 1d e0 a5 3c 9e 7e f0 bc 7b 0e c6 bc 54 57 f6 3b
       0.020248467 -0.02935725 -0.024176827 0.0075177345
000160 46 7f 63 bc 9f 31 b8 3c 6c 14 2d bc be 36 1c bd
       -0.013885325 0.022484599 -0.010563951 -0.038138144
000170 d9 2c 25 bd 91 07 6c bb 67 3f 1c bd 2b 64 01 3d
       -0.040325973 -0.0036015252 -0.038146403 0.03158967
000180 c6 d3 f9 3c a0 a1 9f 3c b6 64 19 bd 38 2e 7e bc
       0.03049649 0.019486248 -0.03744956 -0.015513949
000190 2e da cb 3c ac 49 2f 3b 90 c8 2e bb 95 de 14 bc
       0.02488431 0.0026746793 -0.0026669838 -0.009086271
0001a0 81 45 eb bc db 56 9d bc 9c 56 97 3c f6 42 65 bc
       -0.028719665 -0.019206455 0.018473916 -0.0139930155
0001b0 ce 7d 80 bd 48 53 4c bd 7c 19 7d bd a3 91 b7 bc
       -0.06273995 -0.04988411 -0.061791882 -0.022408312
0001c0 7a 7a d9 bc 7b d7 e7 bc 04 de 26 bd 4c 38 b4 bd
       -0.02654766 -0.028300991 -0.040739074 -0.087998
0001d0 a2 c3 0e bd a7 b8 e9 bc 73 9e 0e 3d 0d c2 8d bc
       -0.03485454 -0.028530432 0.034819078 -0.017304445
0001e0 90 0d 15 bd cb 3d 74 bc d8 0c cc 3c 63 08 db 3c
       -0.036389887 -0.014907311 0.024908468 0.026737398
0001f0 a0 c3 40 bb 65 b4 bd 3c 3e 65 2e bd a5 d9 cb bc
       -0.0029413477 0.023157308 -0.04257702 -0.024884054
000200 be 0a 84 3c 17 43 c3 bc b3 7c 11 bc 5d b4 24 3c
       0.016118404 -0.023835702 -0.008879828 0.010052768
000210 05 76 8a bc c2 d4 2e bd ae e1 0c bc 24 fc 08 bd
       -0.01690198 -0.04268337 -0.008598728 -0.033443585
000220 9a 0c ec bc b5 d4 a8 3c 8c aa 22 3c a4 70 6d bd
       -0.028814603 0.02060924 0.009928357 -0.05796875
000230 c1 25 09 bd 32 02 f4 bc 24 d0 a6 3b 5d f7 d9 bc
       -0.03348327 -0.029786203 0.0050907303 -0.02660721
000240 7e 1e 59 bc e4 62 88 bc 3a 51 09 bd 7b a1 2b bd
       -0.013251899 -0.016648717 -0.03352473 -0.041902047
000250 33 55 1e bd 92 2a 46 3a 45 e7 46 3c 8d 23 16 bc
       -0.03865547 0.0007559444 0.0121401 -0.009163749
000260 7d 8f fc 3c 9a 93 54 bc a8 db c9 3c f8 45 4d bc
       0.03083014 -0.012974644 0.024640873 -0.012528889
000270 dc 73 ee bc 91 6a 00 bb 26 73 40 bd 60 1d 1e 3c
       -0.02910798 -0.0019594769 -0.046984814 0.009650558
000280 f5 fa 36 3b 03 49 63 3c 2e b8 83 3c 4a 74 f3 3c
       0.0027920578 0.013872388 0.016079035 0.029718537
000290 a4 6b 08 bd e6 34 2d bd ad 3f 2a bb a1 b6 c2 bc
       -0.03330578 -0.042286776 -0.0025977895 -0.023768725
0002a0 6e 3e bf bb 19 67 f5 3c d1 4e 02 bb d0 24 3d ba
       -0.0058362996 0.029956387 -0.0019883404 -0.00072152633
0002b0 32 59 25 bd dc 67 a3 bb b4 72 20 bd a7 c5 84 bc
       -0.040368266 -0.0049867462 -0.03917189 -0.01620753
0002c0 81 1f c0 3c 4f 9b 17 bc e1 31 43 3c 2a aa 0f 3c
       0.023452522 -0.009253337 0.0119137475 0.008768598
0002d0 5d a9 0f 3c d9 95 cf 3b 91 57 5a bd 52 28 15 bd
       0.008768407 0.006335002 -0.053306166 -0.036415406
0002e0 d2 ee 6b 3b 06 f3 1c bd f5 ec 80 bd fb 85 06 bd
       0.0036000502 -0.038317703 -0.06295196 -0.032842617
0002f0 23 eb 6b bb a8 58 38 bd 47 18 19 bd 5c 56 e7 3c
       -0.0035998307 -0.045006424 -0.03737667 0.028239422
000300 8a 71 a3 bb 66 54 3a 3c b1 ef bb 3c 47 3b cd 3c
       -0.0049879 0.011372661 0.022941442 0.02505268
000310 30 4a 5a bb 41 2e af bc 4c 05 3a 3c 7e 72 60 bc
       -0.003330838 -0.02138436 0.011353802 -0.013699172
000320 86 01 0a 3d f6 44 22 bd d7 08 17 bd 06 31 d1 3c
       0.03369286 -0.039616548 -0.036873665 0.025536072
000330 5f 4c 0d bd 16 0d e0 3b 06 73 ca bc 2f 64 93 3c
       -0.03449666 0.0068374975 -0.02471305 0.017992107
000340 7a 2f 01 3d cb 16 7b 3c 26 c9 86 bc 8f 3f 75 3c
       0.031539418 0.0153252585 -0.016453337 0.014968767
000350 93 bb 16 bb cc 2d 3e bc 29 5d 38 bd 99 e9 f4 bc
       -0.0022999987 -0.0116075985 -0.04501072 -0.029896544
000360 3c 2e 36 bd 2d 63 65 3c cf 86 3e bd 9f a9 8a bd
       -0.044477686 0.014000696 -0.046515282 -0.06770634
000370 1b f4 1a bd 3e 76 a9 bb e4 79 3d bd 77 fb 4e bd
       -0.037830453 -0.0051715663 -0.046258822 -0.050532784
000380 c6 ec 58 bc dc e2 a2 bd 3c c2 83 3b e7 0f 1d bd
       -0.013240045 -0.07953426 0.0040209573 -0.038345244
000390 56 1e 42 bc f6 32 82 bc 57 97 70 bd b0 ce 86 bd
       -0.011848053 -0.01589344 -0.05873808 -0.06582391
0003a0 19 9a a8 bb 77 e6 33 bd 97 03 c7 3c d8 ab 33 bd
       -0.005145323 -0.04392096 0.024293704 -0.043865055
0003b0 14 9c 58 bd 56 b3 7e b8 8a 0b a8 bc e7 0d 43 3c
       -0.052883223 -6.072534e-05 -0.020513315 0.01190517
0003c0 d5 ae 3f bc cd 5e 6b 3b 1c 1b 67 3c 62 59 27 bc
       -0.011699398 0.003591466 0.0141055845 -0.010214182
0003d0 36 ef cb bc b4 f2 9a bc 76 f4 1e bc f2 45 28 bd
       -0.024894338 -0.018914558 -0.009701839 -0.04108233
0003e0 2c a2 06 3d 9c 2a 95 3c a8 8b 8e bc 91 0a 04 3d
       0.032869503 0.018208794 -0.017400578 0.03223664
0003f0 79 f4 98 3b f6 7b 9c 39 d7 bf c0 3c b9 fe c6 bb
       0.0046678153 0.00029846997 0.023528976 -0.006072846

features.6.bias f4 [128]
000000 b0 67 72 bd 91 d4 16 bd c6 18 b1 bc 2a e9 05 bc
       -0.059180915 -0.036823813 -0.021618258 -0.008173266
000010 ea dc 7b bd 36 fe a3 3d fe ac 21 bd 15 36 1d bd
       -0.061489977 0.08007471 -0.03947162 -0.038381655
000020 d6 06 b8 bd 0c d9 16 bd 74 ff 3a bd 48 ec 67 bd
       -0.08985679 -0.036828086 -0.045653775 -0.05662182
000030 2a 0b d1 bc 5e 12 0f 3d 76 52 3f bd 2d 4b 59 3d
       -0.025518019 0.034929626 -0.0467095 0.05305021
000040 3d ca bb 3d 69 f2 81 bb b6 3c 17 3d c1 4b db bc
       0.09169433 -0.003965665 0.036923133 -0.02676952
000050 9c b2 cc 3d 3a 73 41 3d 6b c1 82 bb 5d 8c 76 bd
       0.099950045 0.04722903 -0.0039903424 -0.060192455
000060 48 3c 10 bd 30 4f fb bc 68 bc 0d bd 0c 02 bd 3c
       -0.03521374 -0.030677408 -0.034603506 0.023072265
000070 23 ec 56 bd ce 32 a9 3c 6b 15 71 bd d9 42 42 bd
       -0.05247129 0.020654108 -0.058858316 -0.047427032
000080 b4 3a 4c bc d3 b9 94 3b 5a 51 28 bd f5 81 0a bc
       -0.012465168 0.0045387535 -0.041093208 -0.008453836
000090 ed 6c e5 bc a2 58 5a 3d 60 5c 00 bd 0e 8b c2 3d
       -0.028006041 0.053307183 -0.031338096 0.09499179
0000a0 2f 54 a4 bc bf 58 d8 bd a9 99 c9 bc a3 1d f0 3c
       -0.020059673 -0.10563802 -0.024609404 0.029311007
0000b0 01 9b b0 bd 68 f1 86 3b 46 26 5c bd db d0 3d 3d
       -0.08623315 0.0041181333 -0.053747438 0.04634176
0000c0 ac 04 c8 bb 37 b9 40 bd 3c 5a 66 3c c2 61 66 bd
       -0.0061040726 -0.047051635 0.0140595995 -0.056245573
0000d0 a5 0b 5c bd 65 07 15 bd 37 b9 56 3c 9d 41 c4 3c
       -0.053722043 -0.036384005 0.013105682 0.023957068
0000e0 14 69 83 bb d8 cd 83 3d 1a 96 97 bc 05 d5 1b bd
       -0.004010329 0.06435746 -0.018504191 -0.038044948
0000f0 c8 e1 a3 3c d8 d6 77 3d dd 7f 85 3d 25 3f 39 bd
       0.020005122 0.060507625 0.065185286 -0.045226235
000100 c4 d7 40 bd cd 63 2d bb c7 d0 82 3c 95 21 4f bd
       -0.04708077 -0.002645719 0.015968693 -0.050569136
000110 ce 11 17 3b fd 14 3d 3d ce 3b 34 3d c5 eb 35 bd
       0.0023051384 0.046162594 0.044002347 -0.0444143
000120 63 19 36 bc a5 f7 4b bd 1f 65 28 bd 3c b8 bf 3c
       -0.011114451 -0.04979672 -0.04111206 0.02340328
000130 dd 36 b6 3c 09 ef 92 bc af b8 f7 3d db 56 09 3d
       0.022242958 -0.017936246 0.120957725 0.033530097
000140 cc c0 2a bd 4c c9 a3 bd c3 d9 41 bd a0 97 29 3b
       -0.04168777 -0.07997379 -0.047326814 0.002587773
000150 2c 17 d3 bc 94 fe 2d bd b2 db 88 bd 33 a8 1f 3d
       -0.025767885 -0.042479113 -0.066825286 0.038978767
000160 15 9b 0c 3e 5b c6 99 bc cf 8a 85 bc e6 f1 04 bd
       0.13731034 -0.018771341 -0.01630154 -0.032457255
000170 69 53 66 3d 4e 17 21 3c 29 fc 90 bc ac 43 cd bc
       0.05623189 0.009832216 -0.017698364 -0.025056683
000180 9c eb 16 3d 68 47 8d 3c e9 3d 9c ba 3d 22 ff bc
       0.03684579 0.017245963 -0.0011920306 -0.031144256
000190 27 41 00 bd 7e 24 6b 3c bf 0a 87 bd 1a 2e e0 3b
       -0.031312134 0.014351962 -0.065938465 0.0068414332
0001a0 ad 33 4c 3d 29 ef 28 be 36 b1 a5 bd c0 21 4a 3d
       0.04985397 -0.16497482 -0.08090441 0.049348593
0001b0 f1 54 7b bd 82 b3 38 bc f1 50 2e bc a7 bd c8 3c
       -0.061360303 -0.011273267 -0.010639415 0.024504496
0001c0 f6 67 92 3d 88 cc 65 bd 39 ca 91 3d 0f 3f d2 bc
       0.07148735 -0.05610326 0.07118649 -0.025664834
0001d0 3b b3 18 3d 22 5a 39 bd a2 ae a6 bd 56 26 30 3d
       0.037280302 -0.045251973 -0.08138777 0.04300531
0001e0 ea 4c 52 bc 01 1e c2 3c 9e 6b be bd 7b 64 d1 bd
       -0.012835721 0.023695948 -0.0929787 -0.10224243
0001f0 cb ea 3b bd 17 65 ce bb 24 c1 53 3b 86 73 20 bd
       -0.045878213 -0.006298672 0.0032311166 -0.03917267

classifier.1.weight f4 [64, 128]
000000 96 b3 5a ba 4d b2 73 bd 29 ed 9a 3b 7c 90 be bd
       -0.00083428004 -0.059496213 0.0047279787 -0.09304902
000010 5f ba 67 3d e0 9d 6e bd f6 11 cd bc a6 80 61 3d
       0.05657422 -0.05825603 -0.025032979 0.05505433
000020 55 7b 94 bd 9d 1d 90 bd 33 34 38 bd a5 59 9b bd
       -0.07250086 -0.07036898 -0.044971656 -0.07585458
000030 59 54 1a 3c 38 95 76 ba 19 0a c5 3c 97 55 3b 3d
       0.009419524 -0.00094063906 0.024052667 0.04573592
000040 6a 82 53 3d f0 7d 24 bd 45 79 38 3b 5a ae 89 bd
       0.051638044 -0.040159166 0.0028148454 -0.06722708
000050 2d 90 bd 3b a5 b4 86 bc 65 69 14 bb 62 47 47 bd
       0.0057850094 -0.01644356 -0.0022645828 -0.04865206
000060 ba 93 f9 3c dd fb 55 3c eb 1b d5 3b e9 88 81 bd
       0.03046595 0.013060537 0.006503572 -0.06324942
000070 c2 59 2c bd 02 ed 7b 3d 22 54 3c 3b 4c 4c c2 bd
       -0.042077787 0.061505325 0.002873667 -0.09487209
000080 7c 67 b4 b8 09 29 30 bd 0c ae 85 bd ad 80 86 bd
       -8.602344e-05 -0.043007884 -0.065273374 -0.06567512
000090 08 fc 28 3d 81 f0 60 bd 28 cf 34 bd 61 16 8f 3d
       0.04125598 -0.054916862 -0.044142872 0.0698669
0000a0 ba eb 86 bd 3d b3 98 bd c5 4b 1e 3b a8 5f 94 bd
       -0.0658793 -0.07456062 0.002415405 -0.072448075
0000b0 d6 8c 65 3a 94 52 b9 ba 3c b1 ac bc 72 41 72 3c
       0.0008756643 -0.001413899 -0.021080606 0.014786111
0000c0 6d b5 bf bd 3d b7 82 3d 52 b5 2b bd ff 01 4f bd
       -0.09360776 0.06382606 -0.041920967 -0.050539013
0000d0 83 43 22 3b 2e 03 31 bd 46 53 aa bd 8d a6 12 be
       0.0024759478 -0.043215923 -0.083166644 -0.14321347
0000e0 c0 3a 76 bb 4b 8e 4e bd 25 f3 6e bd 5f ef f3 bc
       -0.0037571639 -0.05042867 -0.05833735 -0.029777227
0000f0 a6 a8 2f 3d f8 26 df bd 4e bd 78 bd 08 26 09 3d
       0.042885445 -0.108961046 -0.06072741 0.033483535
000100 c7 8d 73 bd f0 8f 07 3b 3c bc 0c be 2b 81 6f 3d
       -0.05946138 0.0020685159 -0.1374368 0.058472794
000110 83 91 eb bd 29 dc b0 3c 08 45 89 bd 93 f4 a3 bc
       -0.115023635 0.021589356 -0.0670262 -0.020014083
000120 ab e4 fa bd 8c 24 63 3d ed 27 69 bd 96 8d 6d 3d
       -0.12250646 0.055454776 -0.05692284 0.057996355
000130 82 02 c3 bb 69 ce b6 bd 6d 25 12 bd bb 33 a6 bd
       -0.0059512267 -0.08926088 -0.035680223 -0.081153356
000140 05 f0 6d bc 04 eb a7 bd 28 db a0 3d 82 69 29 bd
       -0.014522557 -0.081991225 0.07854301 -0.041360386
000150 c0 c0 7c bd 08 3d c1 bc e4 cc b3 bc b5 20 7e bc
       -0.06170726 -0.023588672 -0.021948285 -0.015510728
000160 12 19 fe bc 80 ef 9a 3d 85 cf 36 3d 3a b7 4c bc
       -0.031017814 0.07565212 0.0446315 -0.0124948565
000170 8b 98 a5 bd 7f 00 9c 3c f5 67 a9 3c 01 f3 83 bd
       -0.08085736 0.019043205 0.020679453 -0.06442834
000180 23 95 9c 3c d1 a2 1f 3d ef c2 d6 bd 8d 86 18 3d
       0.019114083 0.038973633 -0.104863994 0.037237693
000190 17 3d 07 3d 7f 8f ec bd f9 1f 48 3d 61 dd de bd
       0.033017244 -0.11550807 0.048858617 -0.108820684
0001a0 b0 65 9e bd 8f 87 f4 3c c5 bb 23 3b e5 ec 9a bd
       -0.07734239 0.029849796 0.0024983746 -0.07564715
0001b0 80 99 22 3d 8f e0 21 bd 25 41 5b bc 4d 61 09 3d
       0.03969717 -0.039520796 -0.013382231 0.03354006
0001c0 1b 95 3e bd a1 09 a5 3c 8a 27 43 3d d1 fe a2 bd
       -0.046528917 0.020146193 0.04764513 -0.079587586
0001d0 5c af 19 bd 72 59 91 3c 51 80 f3 bd 9c 4b 01 be
       -0.03752075 0.017742846 -0.11889709 -0.12626499
0001e0 63 02 19 bd d9 e0 62 3c 68 75 38 bd 0b 85 1e 3d
       -0.03735579 0.013847553 -0.045033842 0.0387011
0001f0 c7 3c 0c bd 0f 10 90 3d ae 03 be 3c ce 6c af bd
       -0.03423765 0.07034313 0.023195114 -0.08565675
000200 6c 19 22 3c 78 4b 28 3d c7 16 51 3d 7d ca 91 3d
       0.009893756 0.041087598 0.051047113 0.071187
000210 de 17 9e bb 39 e3 bb 3d 39 71 00 bd 06 82 01 bd
       -0.0048246225 0.09174199 -0.031357978 -0.03161814
000220 40 d1 fb bc 94 53 4e 3d ed 71 92 bb 9f cc b3 3d
       -0.030739427 0.050372675 -0.0044691474 0.08779263
000230 5d b7 55 3c f3 1e f8 3d 91 5a 5b bd ac 7e b8 3a
       0.0130442055 0.12115278 -0.053553168 0.0014075837
000240 d8 d4 a3 be e6 a0 9e bd 30 56 84 bd 55 b2 24 bd
       -0.31998324 -0.07745533 -0.064617515 -0.040209133
000250 2c bd ac 3d db e9 5e bd 35 aa 7b 3d da ef 3f 3e
       0.08434519 -0.05442224 0.06144162 0.1874384
000260 3e 3c 86 3d fb 04 9b 3d 38 53 a5 3b 74 8b f3 3d
       0.06554459 0.07569309 0.005045321 0.11891833
000270 dc 31 db 3d bc ac d0 3c 0f 7c e2 3d cc cc 3c 3d
       0.10702869 0.025472991 0.110588185 0.046093747
000280 7d ef 38 bb 27 5a bb bc e9 ff 01 3b de f1 01 bc
       -0.0028218918 -0.022870136 0.0019836372 -0.007931201
000290 c2 2f fd bb 51 ed c7 bd 85 f2 ea bb b0 a3 f3 3c
       -0.0077266404 -0.097620614 -0.007170024 0.029741138
0002a0 5c 3c 29 3d 64 83 19 be 28 64 93 3d 33 3e ea 3c
       0.04131733 -0.14991528 0.07196838 0.028594112
0002b0 aa d5 aa bd 81 65 86 3d db cb 72 bd 7e c1 d2 3d
       -0.083415344 0.06562329 -0.059276443 0.10290812
0002c0 ff 30 1d 3d 7e 21 92 3d e1 1b bb bd 13 7a e5 3c
       0.038376804 0.071352944 -0.09136177 0.028012311
0002d0 8e ab b9 3d 19 fc 55 3e e2 56 d0 3d d4 cf ef 3d
       0.090659246 0.20896949 0.101728216 0.11709562
0002e0 bc 12 14 ba 5a 57 80 3c 19 1a 67 3d fa 44 5d 3c
       -0.00056485436 0.015666652 0.056421373 0.013505215
0002f0 71 63 78 bd 0d 0e cc bc f8 50 ed bc c6 0f a9 3d
       -0.06064171 -0.024909044 -0.028969273 0.08254962
000300 a0 de 7b bd ad 19 b7 3d 09 1a 27 be 16 73 de 3d
       -0.06149161 0.08940444 -0.16318525 0.10861795
000310 ca 94 32 bd 61 27 d4 bd f6 a9 82 3d 3d 2c d4 3b
       -0.043598928 -0.103590734 0.06380074 0.006475
000320 6d b4 0c be 52 69 2c bd 00 9a 8e bc 71 c8 0a bc
       -0.13740702 -0.04209263 -0.017407417 -0.0084706405
000330 87 b1 24 bd c2 b9 ee 3d c9 7c b7 3d 5f ed a8 3d
       -0.040208366 0.11656524 0.08959348 0.082484
000340 82 48 98 3d 51 ab 36 3d e9 44 ff 3c ac b4 27 3d
       0.07435705 0.044596974 0.031160789 0.040943787
000350 89 6f 18 bd 12 dd 20 bc 65 12 aa 3d b8 32 9a bd
       -0.037215743 -0.009818332 0.0830429 -0.07529205
000360 85 5b e1 3d ed 06 a4 bd fa bd 20 3c a1 ad 0a 3d
       0.11003784 -0.080091335 0.009810919 0.03385699
000370 22 bf 93 bc 9a 1d 26 3e 17 a7 56 bc a9 ea 75 3e
       -0.018035475 0.1622223 -0.013101361 0.24015297
000380 96 e6 11 bd 48 02 bd bc 4a b0 f1 3d 2e 7a 68 3d
       -0.035620295 -0.023072377 0.118012026 0.056757145
000390 ec 29 92 bc f9 3d 34 3c 27 ce 95 bd 3f d8 bd bd
       -0.017842256 0.011001104 -0.07314711 -0.09269761
0003a0 9f a3 80 3b 02 44 ef 3c 79 0c 1f be c8 ea 67 3c
       0.003925755 0.029207233 -0.15532102 0.014155097
0003b0 19 45 6e bd e2 44 2a bc 58 a7 45 bd 60 6a 7b bc
       -0.058171365 -0.0103923995 -0.048255295 -0.015345186
0003c0 52 b1 d2 3d a5 fe 8c bd cb 1a 1e bd 00 44 c0 3d
       0.102877274 -0.06884507 -0.03859977 0.0938797
0003d0 91 7d da bd 6d b0 1b bd cc d0 d8 bc 88 09 e8 3c
       -0.10668481 -0.03801005 -0.02646675 0.028324857
0003e0 30 9c 8e 3b f2 de 89 bd 7e 6f 0a bd 14 24 a6 3d
       0.004352115 -0.067319766 -0.033797733 0.0811235
0003f0 2e e4 b4 3d de 25 e3 3c cb df 99 3d d9 f1 ff 3c
       0.08832584 0.027728017 0.07513388 0.031243252

classifier.1.bias f4 [64]
000000 4b cf 4b bc 17 8b 4b 3d 42 aa 1b 3e 42 45 b2 3d
       -0.012439559 0.049693193 0.15201667 0.08704616
000010 5c 55 e3 3d 33 c9 6e 3d 73 0b 59 bd 00 96 f9 3d
       0.111002654 0.058297347 -0.052989434 0.12186813
000020 b2 c5 cc 3a b5 a7 9c bc 54 f0 0e bd c9 05 47 bb
       0.0015622883 -0.019122938 -0.034897164 -0.0030368438
000030 71 69 a1 3d af 55 9a 3d 6b f4 3d bd 57 10 a2 bd
       0.078814395 0.07535874 -0.046375673 -0.07913273
000040 5a 2e a6 bb 44 56 45 bc 5a 70 c5 3d 38 e7 5c bd
       -0.0050714435 -0.012044493 0.0964057 -0.053931445
000050 40 f3 32 3c 1f 04 57 3c bc b2 72 3c 1a 1a 29 3d
       0.010922253 0.013123541 0.014813121 0.041284658
000060 8d 6d 45 bd 6b 09 61 3c 23 46 d4 3d 3d 25 09 3e
       -0.04820018 0.013735156 0.1036494 0.13393112
000070 f4 e9 63 3b f0 82 80 bd c8 13 3f bc d6 76 bd 3d
       0.0034776898 -0.06274974 -0.011662431 0.09251182
000080 19 2c 0b 3e af d6 95 3d 5f f9 15 bd 06 88 2a 3b
       0.1359104 0.07316338 -0.036614772 0.0026021018
000090 ee f1 af bd ac 55 96 bd a5 17 71 bd 03 ba 94 bd
       -0.08591066 -0.07340559 -0.05886044 -0.072620414
0000a0 98 28 c5 bd 86 c2 0a 3e f9 1e fa 3c 34 7b b2 3d
       -0.09626883 0.13550767 0.030532347 0.087149054
0000b0 b6 51 1e 3e 8a b0 83 3b e1 de c2 bd 0f 2b d0 3d
       0.15460858 0.004018848 -0.09515167 0.10164463
0000c0 27 f0 9b bc ae f9 ff 3d 8c 49 82 3d ab a2 63 bd
       -0.019035412 0.124987945 0.06361684 -0.055575054
0000d0 74 65 bd bb 3c 05 ff 3b 71 39 9e bb d5 10 22 bd
       -0.0057799164 0.0077826064 -0.004828625 -0.039566834
0000e0 1f 1d 84 bd 29 6a e0 3d 42 aa b8 bd ca df c3 bc
       -0.06450867 0.109577484 -0.09016849 -0.023910422
0000f0 66 d5 0d 3e 3a 93 14 bd 38 d2 4f bd c2 77 34 bd
       0.13850936 -0.03627322 -0.05073759 -0.044059522

classifier.4.weight f4 [2, 64]
000000 0b b5 aa 3b 7d 27 ee bd 5e bf 63 3c 1a b0 1a 3e
       0.0052095703 -0.116286255 0.013900606 0.1510624
000010 9b ca a5 3d d3 a7 2c 3e e5 07 46 bd 28 6b 15 3e
       0.080952846 0.16860895 -0.048347373 0.14591658
000020 7a 82 ab 3c b8 61 1c bd 22 41 aa bd 80 22 71 bd
       0.02093624 -0.03817913 -0.08313204 -0.058870792
000030 3e 9e 2f 3d 45 bf bf 3d 83 42 36 bc 66 c5 cc bd
       0.04287552 0.09362654 -0.011124256 -0.09998588
000040 34 8d c4 3d fe 65 1f bd 4f ff 07 3e 10 89 48 3d
       0.09597245 -0.038915627 0.13280986 0.048958838
000050 5a 01 65 bd 38 18 0b bd 92 05 6a bd ed 88 ca bb
       -0.055909492 -0.033958644 -0.05713422 -0.0061808736
000060 be 68 e5 bc 67 58 0c bc 81 04 d7 3d 1e c3 f6 3d
       -0.028004047 -0.008565999 0.10498906 0.120489344
000070 b2 2d 10 bb 66 ba 51 3d c3 4a 4c bd 20 c8 2e ba
       -0.0021999893 0.051203154 -0.049875986 -0.0006667394
000080 db c5 03 3e af 94 cb 3c d4 24 28 3d ce 02 bc bd
       0.12868445 0.024851171 0.041050747 -0.091802225
000090 4d 77 50 bc 55 77 fc bb cf 47 0c 3b cf 02 dd 3d
       -0.012723756 -0.007704655 0.0021405106 0.10791551
0000a0 66 b7 40 3d 76 c3 19 3e e4 89 d7 37 52 73 1e 3e
       0.047049902 0.15015969 2.5694208e-05 0.15473679
0000b0 fe c0 17 3d ca b9 1a be 5b 79 af bc 1f 21 3b 3e
       0.037049286 -0.15109935 -0.021420171 0.18274353
0000c0 84 c3 91 3d 1a fa 93 3d 86 c9 3a be 36 69 b5 3d
       0.0711737 0.072254375 -0.18240938 0.08857958
0000d0 b5 c2 42 3c e5 75 5d bd 6d a1 08 3e 45 f2 09 be
       0.011887242 -0.05406751 0.13342829 -0.13471325
0000e0 d7 28 2b be 28 12 2b 3d 3e d5 78 bd 47 c6 e7 bd
       -0.16714798 0.041765362 -0.06075024 -0.11317115
0000f0 d7 96 d4 3d 9c e7 d0 bc 3f 8e af 3c 5a f3 a4 bd
       0.10380333 -0.025501065 0.021430133 -0.08054228
000100 e3 3e 49 3b cc 6f f7 3d 5d dd 5e be 18 80 b7 bd
       0.003070765 0.120818704 -0.21764131 -0.08959979
000110 81 0e 1e be 2e bc 8c 3d 87 a9 01 bd 63 65 12 bd
       -0.1543522 0.0687183 -0.031655814 -0.03574122
000120 ef 99 10 3e 8e 09 73 3d 6f 12 48 3d 18 fc 30 3d
       0.14121221 0.059335284 0.048845705 0.043209165
000130 49 b7 1d be 11 08 68 bd ce c2 20 3e dc be d5 bd
       -0.15401949 -0.056648318 0.15699312 -0.10436794
000140 d1 a3 06 be ab 64 b1 3d 09 a4 ed bd 82 d1 84 3d
       -0.13148428 0.08661779 -0.11603553 0.06485273
000150 2f 12 81 3c 53 36 59 3d cd ca d8 3d 7e db 0b be
       0.01575574 0.053030323 0.10585556 -0.13657948
000160 88 ab 3e 3e 03 b0 fc 3d 59 41 42 bd 80 c6 37 be
       0.18620121 0.12338259 -0.0474256 -0.17946815
000170 43 c6 e1 3d e8 40 bc bd 8a 16 25 3e 51 6a ed bd
       0.110241435 -0.091920674 0.16121879 -0.11592544
000180 9f 88 e7 bd 9c 04 16 be f7 16 87 bc ef 25 0b bd
       -0.11305355 -0.14650196 -0.016490443 -0.033971723
000190 65 6c f4 3c 8d f1 94 bd 4d 5e 39 3e 8d df f2 3d
       0.029836843 -0.07272635 0.18102379 0.11859045
0001a0 03 68 2a bd a9 80 19 be ea 6e 22 3e 16 07 0b bd
       -0.0416031 -0.14990486 0.15862623 -0.033942305
0001b0 7c 89 34 be c3 0f d1 3d 7b 80 10 3c ec d0 88 bd
       -0.17630571 0.102080844 0.008819695 -0.06680474
0001c0 d0 3b 56 bd 76 30 16 be 62 7e a8 3c d3 3d ee 3c
       -0.052303135 -0.14666924 0.020568077 0.029082214
0001d0 d7 7f 31 3e b8 53 25 3e e0 e5 70 bd 39 16 80 3d
       0.17333923 0.16145217 -0.058812976 0.06254239
0001e0 d7 91 22 3e 2e 62 46 be fa 2b 98 bd 6f 90 f8 3d
       0.15875946 -0.1937339 -0.07430263 0.121369235
0001f0 9c 6e b3 bd 1f e0 bf 3c 3a a5 be bc 84 8c dd 3d
       -0.087613314 0.023422299 -0.023272146 0.10817817

classifier.4.bias f4 [2]
000000 30 1e 97 3d c5 77 a2 3d
       0.07378805 0.079330005
